ia_texto_bpe.pth (torch, 131730 bytes, 7 tensors)

embedding.weight f4 [202, 32]
00000000: e03f be3f 6c3d da3f 72b5 2abf 75a0 a3bf
00000010: 5691 bb3e 5ecb 643f a5c9 233f 1d19 c93f
00000020: 01d0 05bf 6703 1940 b92e 14bf 0c9c ec3f
00000030: d477 7ebf bd47 8abf 8908 7e3e b803 433f
00000040: 1b98 06c0 ce74 043f 8a9d 91be 1bea cabf
00000050: 1551 d93f 27e4 d6be 6c03 ccbf 4a6c f23f
00000060: eb3b 6ebf 8a23 6f3f eab3 29bf 9faf a9bf
00000070: 8eaf 723f 2907 dcbd 7fea 38bf 8b18 f13f
00000080: 67cf fdbe 8434 e1bc 583a 5cbf c9d7 e8bd
00000090: ac72 6bbd 07c0 773f fdd1 1b3f e99a 96bf
000000a0: 3847 aabf c5d4 923e 22d0 393f 182f f63e
000000b0: 45c4 b83f 1b62 a1bf 3a44 03c0 d1d9 9e3e
000000c0: 6ec7 433f 0017 cc3f beff 3d3f 11df 69be
000000d0: f1db a6be 2522 67bf 19bc dbbf 650f 953f
000000e0: e28e bdbf a21c ef3e 6f7b 5a3f f79d 82bf
000000f0: c9df 463f e0ff 95be a1be 353f 978a 773f
00000100: ae7c 0240 2c22 973f 932b 18be 1cf2 693e
00000110: d274 ca3e 621e 0dc0 8437 1cc0 d446 b1bf
00000120: 6435 513f 353e b8bf b73a 40bf 0f78 c23d
00000130: 32da 903f 3c6e 1dbf a4ca a1bf 1408 67bf
00000140: 65e5 e4bd 8de6 0cbc 6f6a b33f 1817 ac3f
00000150: 62e4 b7bf 9943 4ebf b716 0f3f d72d 57bf
00000160: 609d b23e 998d 7a3b 9107 81bf 8de2 ba3f
00000170: f870 12c0 5681 78bf 15c2 833f 4453 d7bd
00000180: 1e6d 0340 2eb5 903f bcc8 643f 7dc0 5bbe
00000190: 8934 cc3f 30a1 3b40 d9e3 0140 c3ca 1040
000001a0: c7d9 2a40 4740 31bf ad7a 7d40 1232 2bbf
000001b0: c936 84c0 4bb3 7140 f000 85c0 b1c6 26c0
000001c0: a6f3 0340 4469 0140 de6d 1dc0 bd21 28c0
000001d0: b3a0 83bf 5e99 17bf 9bf0 b640 a333 d4bf
000001e0: c8da b440 d1e4 1cc0 d53d 923f d2cc 78be
000001f0: 0b46 0d3e d64d 42c0 3ea4 bd3f 311f 5440
00000200: aff9 523f 87f1 10c0 e656 1bbf 1dbc 1fbe
00000210: e49f bbbe b2b6 e7bf 406b 953e 9f25 183f
00000220: d4aa f03b 35d7 15bd 2631 0d3f 6c62 bbbb
00000230: 787f 173f 2e06 1040 a39c 90bf 96a7 30bd
00000240: fbb5 eebe 2e32 1a40 65a7 d4bd 15c7 903f
00000250: c419 afbf 46a4 c9bf 2d76 40be 287e 68be
00000260: 09c5 e23f f8a0 b4be c0a6 2340 0c26 91be
00000270: b6a8 1a3f 187f 1b40 53a2 c43f 84fb 0cc0
00000280: 504a 5340 2641 703f af10 1240 b258 83bf
00000290: 5ef2 bd3d bf60 7ec0 f7a8 323f 5c6b c63d
000002a0: 75d6 1240 92f1 babf 48e3 b2c0 8216 89bf
000002b0: 6fed 2ac0 f968 0cc0 591d 1dc0 e18a 80c0
000002c0: b65d 963f 3175 d5bf 8582 d83f ca51 92be
000002d0: e750 a040 68bd 7ebf 72cb e13e fef3 0d40
000002e0: 3f5a 99bf a660 0040 0e21 c2bf 06a5 b7be
000002f0: b54e e7bf ba5f c7bb d2a1 2ac0 a4d7 063f
00000300: ad3a b03f 0b45 b5c0 05c7 7540 890f d5bf
00000310: ee71 5b40 4dd5 9fbf 90f3 45bf 45a1 763f
00000320: 919c 03bc 17f9 96c0 3e5c 67bf d7e1 2cc0
00000330: 7184 ee3e 0dbc bcbe 3a2b d23f 5002 473f
00000340: 0cbc 1540 9e22 75c0 aaac 20bf 68eb 2abf
00000350: 096f 1e3f 621b a440 b2f1 a73f 93bc 4240
00000360: 4682 16c0 feb0 9dc0 b285 8740 885f 303e
00000370: 47c0 b9bd 9d7f 1140 357d 16c0 6d2e 873e
00000380: d8e4 0b3f 3d6b c73f c766 0840 5648 84bf
00000390: ddfa a83f 70d8 2f40 ea5c 42bf dfed 04c0
000003a0: df9e 693f 49c9 f03f 6705 d0be 43bd 5ebe
000003b0: dca9 743f bc28 8f3f 5393 2fc0 6f7c 47c0
000003c0: c025 b33f bd93 0240 ad4e 55c0 7609 48c0
000003d0: bd31 683f 2829 0b40 2c44 93bf bcfa ea3e
000003e0: b730 383f f466 00bf ac13 d740 b054 fb3f
000003f0: d673 193f 9d3f 1ec0 05ba 1140 01ca da3e
1.4863243 1.7049994 -0.66683114 -1.2783343 0.3663432 0.89372814 0.6397956 1.5710789
-0.52270514 2.3908327 -0.57883793 1.8485122 -0.99401593 -1.0803143 0.24807943 0.7617755
-2.1030338 0.5174073 -0.28440505 -1.5852693 1.6977869 -0.4197094 -1.5938544 1.8939297
-0.9306018 0.93413603 -0.6629015 -1.325672 0.94799125 -0.10743553 -0.7223281 1.8835615
-0.49572298 -0.027490862 -0.86026525 -0.11369283 -0.057482406 0.96777385 0.6086729 -1.1766025
-1.3302984 0.28677955 0.7258321 0.48082805 1.4434897 -1.2608064 -2.0510392 0.31025556
0.7647618 1.5944519 0.74218357 -0.22839 -0.32589677 -0.90286475 -1.7166778 1.1645323
-1.4809229 0.46701533 0.85344595 -1.0204457 0.7768522 -0.2929678 0.70994 0.96695846
2.0388598 1.1807303 -0.14860372 0.22846264 0.39542252 -2.2049794 -2.4408884 -1.384974
0.8172209 -1.4393984 -0.7508959 0.094955556 1.1316588 -0.6149633 -1.2639966 -0.902467
-0.11176566 -0.008599889 1.4016856 1.3444548 -1.4366572 -0.80571896 0.55894035 -0.8405432
0.34885693 0.0038231371 -1.0080434 1.4600388 -2.288145 -0.9707235 1.0293604 -0.105139285
2.053535 1.1305292 0.89368796 -0.21460147 1.5953532 2.931713 2.0295317 2.2623756
2.669542 -0.69238704 3.9606125 -0.66873276 -4.1316876 3.7765682 -4.1563644 -2.6058772
2.0617461 2.02205 -2.4598308 -2.6270592 -1.0283417 -0.59218395 5.716871 -1.6578258
5.6517067 -2.4514658 1.142512 -0.24296883 0.1379625 -3.0360007 1.4815748 3.3144038
0.82412237 -2.2647417 -0.6067947 -0.15599103 -0.36645424 -1.8102629 0.29183388 0.59432405
0.007344583 -0.03658219 0.5515312 -0.00571852 0.59178877 2.2503772 -1.1297802 -0.043128572
-0.46623215 2.4093127 -0.103834905 1.1310755 -1.3679738 -1.5753257 -0.1879508 -0.22704375
1.771638 -0.3527906 2.5570526 -0.2834934 0.6041368 2.4296322 1.5362037 -2.2028513
3.3014107 0.9384941 2.2822683 -1.0261443 0.092747435 -3.974655 0.6978907 0.09688446
2.2943394 -1.4604971 -5.5902443 -1.0709994 -2.6707418 -2.193907 -2.4549162 -4.016953
1.1747348 -1.6676389 1.6914831 -0.28578025 5.009876 -0.9950776 0.4410053 2.218017
-1.1980666 2.005899 -1.5166337 -0.3586809 -1.8070894 -0.0060844095 -2.6661267 0.5267279
1.3767906 -5.664678 3.8402722 -1.6645366 3.4288287 -1.2486969 -0.7732477 0.9633983
-0.008032934 -4.7179065 -0.90375125 -2.7012842 0.4658542 -0.3686222 1.6419442 0.77737904
2.3396025 -3.8302379 -0.62763464 -0.6676545 0.61888176 5.1283426 1.3120635 3.0427597
-2.3517013 -4.9278555 4.23507 0.17223942 -0.09069877 2.273414 -2.351392 0.26402608
0.5464606 1.5579602 2.131273 -1.0334575 1.3201557 2.7475853 -0.75923026 -2.0770185
0.91258043 1.8811427 -0.40629122 -0.21751885 0.95571685 1.1184306 -2.743367 -3.1169698
1.3995895 2.0402672 -3.332927 -3.1255774 0.90700895 2.174387 -1.150518 0.4589442
0.7194933 -0.50157094 6.7211514 1.963522 0.59942377 -2.4726326 2.2769787 0.42732242

lstm.weight_ih_l0 f4 [192, 32]
00000000: c820 b5bf 1e48 783f 9e42 febc 84fe 2b3f
00000010: 8563 41c0 b9fa 2940 3473 663f 1e9d af3f
00000020: 3d72 09c0 f489 4940 3961 45c0 a9bb d1bd
00000030: adf1 c2bf cc71 75be 60ce fe3f 7b6e d73f
00000040: b697 00c0 75af 963f e5bf b1be acca a3be
00000050: dc0e 653f 0038 0340 9f5d e5bf 51e7 9ebf
00000060: 0dbe 27bf 1345 d43f ee08 34bf 5d70 013f
00000070: 0d58 2040 575b e3bf fe70 c3bf 4a35 8cbf
00000080: ddfd 32c0 27a5 9f3f 680f 893f 7ffa f4bf
00000090: ed22 84bf c08a a0be ab10 1d3e 220d debe
000000a0: ecf8 a03f b0cc b03f 6257 da3f d535 03bf
000000b0: 6c61 3ec0 dc4d 503f 75e3 483f 7f3a 0f3f
000000c0: 8b9f 67bf dc4d ad3f f205 263f 064a 75bf
000000d0: 17db b83e 341a 1f3e b03d 8f3f 18e5 2240
000000e0: 239d 753f d90c be3f 2136 9f3f 5075 36bc
000000f0: 4f5b ff3e 1a4b 053e 5763 3c3f 312a 1bbe
00000100: 5b06 29bf d437 7340 36c4 9a40 1c17 a6be
00000110: f497 04bf e65d 323f c1f4 d9bd a6e8 3a3f
00000120: 3383 74be 9861 ba3e 6d81 1e40 c494 093f
00000130: 32d5 0f40 2011 95bf e8d4 80bf 4ad7 9b3f
00000140: 97d1 9fbe 8549 4ec0 527e 42bd b9d0 fabf
00000150: e683 11c0 9bda b5bf c74b d03d 089f a9bf
00000160: c79d 173e 2a2d 4940 821b c43f c651 863f
00000170: 350b 5240 44ea 323f 8527 25be e4af 1dbf
00000180: 7e85 20bf a827 0040 6365 533f e58d e83f
00000190: ce45 563f 4815 dbbf 9289 aebe ef8f d1be
000001a0: 0d9c f43f 23cd adbf 1d6b d4bd ceda 37c0
000001b0: fd71 1fc0 ec46 813f 5cb7 2ec0 a457 05bf
000001c0: 3ab7 7ebe 7ec4 33bd beb6 3940 fe8e 47bf
000001d0: 0de1 093f 2a21 56bf 59c2 1b3f 0157 37bf
000001e0: 9403 123f 4bb9 4f3f 0fba e03f 5548 9bbe
000001f0: 6501 4f3f 98a1 4bbe 6325 3dc0 1f5d e73d
00000200: c769 3b3f dd8a 4cbf f30a 3b40 a26b cb3d
00000210: e7c8 9a3e 9a43 803f 4103 07be 1cb2 09bf
00000220: 4481 3140 66c4 acbf 8eec 4ac0 7a0b 3fbf
00000230: f1d4 6e40 652f d9be ac60 373f f759 46bf
00000240: c6f8 373f d2f4 f23f 5fd2 923f bae1 05c0
00000250: af13 debf 0c80 eebf e9a8 30c0 1f00 963f
00000260: bf25 b5bf 9ef0 33c0 d4cc 49c0 ac3c 75bf
00000270: 5c5c 46bf 5b58 b2be 4276 af3e cb13 0840
00000280: 6c72 0f40 8a6a 9f3f 98b8 39bf 5765 1340
00000290: 7ae7 90bf 2c27 84be c148 40c0 5a59 813f
000002a0: fdcc 78be ccb0 4bc0 71cc 47c0 4f7a 9e3f
000002b0: b945 bfbf 5e1a d9be 3bcc 9d3f f7f5 1a40
000002c0: 7c76 d8bf 877e 17c0 47f6 2bbe bc2a 4ac0
000002d0: 9cfd 4e40 057f 21bf 7351 153f b7d0 1ebf
000002e0: c0a7 edbe 786f 21c0 da9a 1c3f 3eac 203f
000002f0: 68ae 3040 94f8 b3bf fb82 47bf 2420 fbbc
00000300: 3dfb ac3e 019d 53c0 5663 1140 a1f0 4bbf
00000310: 7716 c0bf 48bd 82bf b38d 93bf a0ff 7e3f
00000320: fb45 af3f 08c9 afbe 5853 523f 4f78 a8bf
00000330: d69c 2640 0aa8 a5bd 543a 82bf dba2 05c0
00000340: 927f a13f c543 3440 c6b1 f5bf 0c52 e7bd
00000350: f394 963e 89e2 80bf 3bbb 943d 891c 903f
00000360: 1f30 84bf 7176 10c0 3641 0740 d817 d4be
00000370: 95f2 e0bf 00fe fb3e abcb 583f a178 923e
00000380: b58d f0bf cd4b ac3f d860 59bf 4ef9 87bf
00000390: ac7e 03be 68ac bebd 053a 3e40 c88c b13d
000003a0: 645d 563f d905 043f c220 44bf 74d2 45c0
000003b0: 67cd 30bf ded7 603e d001 633f f9b5 05c0
000003c0: 74f7 52bf 2b51 293e 5e34 05bf a983 c3be
000003d0: b615 443f f050 edbf 4d4c cabf c312 e8bf
000003e0: 1f9f e6be 79cf 1140 04f1 eb3f 8da2 88bf
000003f0: f274 03c0 7eab 8ebf ffb0 5b3f 32bc cd3e
-1.4150629 0.9698504 -0.031037625 0.67185235 -3.0216992 2.655928 0.90019536 1.3719823
-2.1475976 3.149045 -3.084059 -0.102408715 -1.5230004 -0.23969191 1.9906731 1.6830591
-2.0092597 1.1772295 -0.34716716 -0.31990564 0.894758 2.050293 -1.7919196 -1.2414342
-0.6552437 1.658358 -0.70326126 0.5056208 2.5053742 -1.776225 -1.5268857 -1.0953763
-2.7967446 1.2472275 1.0707827 -1.9138945 -1.0323159 -0.31355858 0.1533839 -0.43369395
1.2575965 1.3812466 1.7057917 -0.51254016 -2.9746962 0.81368804 0.7847207 0.5594863
-0.9047782 1.3539386 0.6485282 -0.95816076 0.36104652 0.1553734 1.11907 2.5452328
0.95942897 1.4847671 1.2438394 -0.011136368 0.4987435 0.1301693 0.7358908 -0.15152813
-0.6602532 3.8002825 4.8364515 -0.32439506 -0.5179436 0.6967453 -0.10642386 0.73011243
-0.23878174 0.36402583 2.4766495 0.53742623 2.2473874 -1.1645851 -1.0064974 1.2175076
-0.31214592 -3.2232373 -0.04748375 -1.9594947 -2.2736754 -1.4207338 0.101707034 -1.3251657
0.14806281 3.1433816 1.5320895 1.0493705 3.281934 0.6988871 -0.16128357 -0.6159651
-0.6270369 2.0024204 0.8257658 1.8168303 0.83700264 -1.711587 -0.34089333 -0.40930125
1.9110123 -1.3578228 -0.10371993 -2.8727298 -2.4913323 1.0099769 -2.7299414 -0.52086854
-0.24874583 -0.04388856 2.9017787 -0.77952564 0.53859025 -0.83644354 0.60843426 -0.7161713
0.5703671 0.8114211 1.755678 -0.30328622 0.808615 -0.19885862 -2.955407 0.11297058
0.7320828 -0.7989939 2.9225433 0.09932639 0.302314 1.002063 -0.13184835 -0.537874
2.7735147 -1.3497436 -3.1706882 -0.74626887 3.731747 -0.42418972 0.71631885 -0.77481025
0.71863973 1.8980963 1.147045 -2.0919023 -1.7349757 -1.8632827 -2.7603095 1.1718787
-1.4152144 -2.811561 -3.1531267 -0.957957 -0.7748468 -0.34833035 0.3426991 2.126208
2.2413588 1.2454388 -0.7254729 2.3030603 -1.1320641 -0.25811136 -3.0044405 1.0105393
-0.24296947 -3.1826658 -3.121853 1.2381076 -1.4943153 -0.4240293 1.2327951 2.4212625
-1.6911159 -2.3670976 -0.16793166 -3.1588583 3.234229 -0.6308444 0.58327407 -0.62037224
-0.46417046 -2.5224285 0.61173785 0.6276282 2.760645 -1.4060235 -0.77934235 -0.030654974
0.3378543 -3.3064578 2.271688 -0.79664046 -1.5006856 -1.0214014 -1.1527618 0.996088
1.3693231 -0.34333062 0.8215842 -1.3161715 2.6033225 -0.080886915 -1.017405 -2.088065
1.2617056 2.8166363 -1.9194877 -0.11294946 0.29410514 -1.0069133 0.07262274 1.1258708
-1.0327185 -2.257229 2.1133552 -0.4142444 -1.757403 0.49217224 0.8468577 0.28607658
-1.8793246 1.3460633 -0.84913397 -1.0622957 -0.1284129 -0.09310228 2.9722912 0.0866943
0.8373625 0.5157142 -0.76612484 -3.09097 -0.6906342 0.21957347 0.8867464 -2.0892317
-0.82408834 0.1653487 -0.5203303 -0.38186386 0.7659563 -1.8540325 -1.5804535 -1.8130726
-0.45043275 2.2782881 1.8432927 -1.0674607 -2.0540128 -1.1146085 0.8581695 0.40182644

lstm.weight_hh_l0 f4 [192, 48]
00000000: 99ca 31c0 425a 343f 89c4 8ec0 8262 abbf
00000010: 9632 e63f 5c34 093f 7549 8e3f f5db adbf
00000020: 0195 a13e 09ee 34be c38b 44c0 031c fc3f
00000030: 454d 34bf d8be 59bf 922e cb3f 29f5 36c0
00000040: 7ba2 b4bf c47b 21c0 2474 9cc0 f5a2 efbe
00000050: 566f 253f c344 11c0 4c7c 3740 f45e 72c0
00000060: 8347 7f40 9dc5 5140 5957 7f3e 98a6 1d40
00000070: 5e29 083e 323b c53f 42ab 2340 d7f6 023f
00000080: 440f 1e40 31e4 8ebe 69f0 fc3e 8cbd 5fbe
00000090: fba4 72bf 4617 5740 1c0d 663e a223 5e40
000000a0: 02bb 3cc0 60c9 78bf b820 9140 ff66 83c0
000000b0: 9edf 18bd 5f0e e43f 497e 41c0 5ea6 2840
000000c0: 0b99 923f 9c5d ce3f a9f6 c33e 707f aebf
000000d0: 04a1 fd3f de9c 18c0 2277 d43f c389 2bc0
000000e0: 6019 d63f b665 6c3f 5dea c8bd d06b adbf
000000f0: e9b4 b53e 6d47 0240 6180 e7bf 9ee2 a23e
00000100: fc65 22c0 75f6 cfbf 5ee1 ff3f 3fec c3c0
00000110: 765c 48bf 227f 84bd a5cc a7be 9439 c13f
00000120: 7b34 07c0 073c 22c0 43cf b9bf 3687 f53f
00000130: 6dd2 8a40 6687 5b3f 35c0 a63f 895d 51bf
00000140: ade4 da3f 4b40 8cbf feea 26c0 242a 5640
00000150: 8020 e5bf 3fb3 4bbf 807c 0c3f f173 8abf
00000160: e1e9 303f f0b0 663e b2ed 813d 88a4 88bf
00000170: c9c8 473f 9644 0a40 d816 0240 96d5 22c0
00000180: 0d73 a5bf cc52 5f3f 4c8e 8e40 3660 f3bf
00000190: 0c65 8bbf 903d 9b3f 89a6 b03f 0cee d0bf
000001a0: 0c4b f93f 6625 29c0 54ab 4c40 dcb9 dbbf
000001b0: 2f04 a73f 7f0e 993f 93d7 b13e 15c9 08bf
000001c0: c8b0 aabd 7657 fdbf f86e 6240 4302 893f
000001d0: 91b1 92c0 3b50 bc40 5e3f 2340 852f 62c0
000001e0: 281e 6c3f 5d75 8fbf d52c 99bf cb92 3e40
000001f0: 1fd2 5bbf e0f3 c4bf b987 9abe e0c9 26c0
00000200: 7d93 06c0 fe22 f1bf 0025 17c0 ed2c edbe
00000210: dec7 b840 7873 5040 7938 84c0 a0f4 223f
00000220: f7d5 2d3f 9c4b 3940 03a3 f43e 8e53 913f
00000230: ba6f 713f a4a1 babe f729 1b3e 95d7 e23e
00000240: 2768 3dc0 99b8 853f 2444 41c0 2cd7 1bc0
00000250: b5fd d23f ce20 ae3f 1e08 c23f 7c03 ddbf
00000260: 78aa 3fc0 10de 8a3e 43cc a340 056a 6040
00000270: fb46 4440 a92d 0b40 b642 af3f 923b 7bbf
00000280: 602a 413e 5b9d fb3f af56 463e 6b32 aa3f
00000290: 65b4 4cbf 1c9a 93c0 9724 d7be 2591 14c0
000002a0: 07c7 d1bf efec 2d3e ca15 5940 d1ba d3bf
000002b0: 122f 04c0 fb49 8040 f98b aebc 6a3d 87bf
000002c0: a480 4cc0 314e 5cc0 c4f1 6bbf c77f 1141
000002d0: ba82 eb3f db18 5abf 8ea3 0940 82c5 e73d
000002e0: 235a 07c0 f6e5 ab3f 5d47 a83f 7ab4 ebbf
000002f0: ee96 4fc0 817c 75bf a89b d3bf d70e e23f
00000300: 7078 12c0 73e5 f5bf cb0f 0240 96cf 13c0
00000310: 0d5b 41bf 946d 0bbc 9127 793f cf5b 843f
00000320: b38e f3be 2ec8 f0bf 1335 d03f aff1 5ac0
00000330: 5ceb 4fbf 48a6 14c0 6f75 dc3d 1458 9fc0
00000340: ee4c 3dc0 79d2 ee3f e9ec 1cbe ea41 0dc0
00000350: b050 b0bf be55 a140 be98 603c 8310 1c40
00000360: 9076 1c40 aa3c 68be 5f8e 3cc0 ee2b 32c0
00000370: 0797 4d3f fa11 86bf 903c 1fc0 484d ac3f
00000380: 36e5 f7bf 3af5 9a3f 9760 64be d4e6 933f
00000390: 1bc8 92be 44d3 5f40 167d 1dbf 6c37 4140
000003a0: fd3c 2c3f 2188 b5c0 9f66 fcbf 19ed 1bc0
000003b0: 57ad 10be 1cee 6240 0642 b53f 691b 693f
000003c0: 9ddb 4ebf bd92 3abf b1f4 b03f 3868 1940
000003d0: 4a83 92c0 bf93 30c0 6fe5 6ebf 7658 4c3f
000003e0: 323e 9cc0 62a8 2c3f a357 26bf 9ba8 35bf
000003f0: 86bb c63f b601 04bf 2ba0 56be d28b adbd
-2.7779906 0.7045022 -4.461491 -1.3389437 1.7984188 0.5359552 1.1116167 -1.358275
0.31558993 -0.17668928 -3.0710304 1.9696048 -0.70430404 -0.8505683 1.5873587 -2.8587134
-1.4112085 -2.523179 -4.8891773 -0.46804014 0.6462301 -2.269822 2.8669615 -3.7870455
3.9887397 3.2776864 0.24935664 2.463293 0.1329703 1.540869 2.5573277 0.511579
2.4696817 -0.2790847 0.49402168 -0.2184965 -0.9478299 3.3607955 0.22465938 3.4709249
-2.948914 -0.97182274 4.535244 -4.106323 -0.037322633 1.7816886 -3.0233328 2.6351542
1.1452955 1.6122317 0.38274124 -1.3632641 1.9814763 -2.3845744 1.6598856 -2.6802833
1.6726494 0.923427 -0.09810326 -1.3548527 0.35489586 2.0356095 -1.8086053 0.3181352
-2.5374746 -1.6247088 1.9990652 -6.1225886 -0.78266084 -0.06469561 -0.3277332 1.5095696
-2.1125782 -2.5349138 -1.4516376 1.9181888 4.3381867 0.85753477 1.3027407 -0.8178335
1.7101036 -1.0957121 -2.6080928 3.346322 -1.7900543 -0.7957038 0.5487747 -1.0816633
0.6910687 0.22528434 0.06344165 -1.0675211 0.7804075 2.1604362 2.0326443 -2.5442863
-1.2925736 0.87235713 4.45487 -1.9013736 -1.0890212 1.2128162 1.3800822 -1.6322646
1.9476027 -2.6429076 3.197957 -1.7166095 1.3048152 1.1957549 0.34734783 -0.53431827
-0.083344996 -1.9792316 3.538023 1.0703815 -4.5841756 5.8847938 2.5507426 -3.5341504
0.92233515 -1.1207691 -1.1966807 2.9777095 -0.85867494 -1.5386925 -0.30181673 -2.6060715
-2.102752 -1.8838804 -2.3616333 -0.46323338 5.774398 3.2570477 -4.1318936 0.6365452
0.6790461 2.8952398 0.47780618 1.1353624 0.94311106 -0.36451447 0.15152727 0.443051
-2.959482 1.044696 -3.019784 -2.435008 1.6483675 1.3603761 1.5158727 -1.7266688
-2.9947796 0.27122545 5.1186843 3.506471 3.0668323 2.1746619 1.3692234 -0.9813777
0.18863821 1.9657396 0.19369005 1.3296636 -0.7996276 -4.612562 -0.42020103 -2.321359
-1.6388863 0.16984914 3.391955 -1.6541387 -2.065373 4.009031 -0.021306979 -1.0565617
-3.1953516 -3.4422724 -0.9216578 9.093696 1.839927 -0.85194176 2.1506076 0.113169685
-2.1148765 1.3429554 1.3146778 -1.8414452 -3.243587 -0.958931 -1.6531878 1.7660779
-2.288601 -1.9210647 2.032214 -2.309545 -0.7552956 -0.008510012 0.97326 1.0340518
-0.47569808 -1.881109 1.6266197 -3.4210012 -0.81218505 -2.322649 0.10764586 -4.9795017
-2.9578204 1.8657981 -0.15324749 -2.207148 -1.3774624 5.0417166 0.013708292 2.4385078
2.4447365 -0.22679392 -2.9461896 -2.7839313 0.80308574 -1.0474236 -2.4880714 1.3461084
-1.9366825 1.2106087 -0.22302471 1.1554818 -0.28668293 3.4972696 -0.6151899 3.0190077
0.6728056 -5.6728673 -1.9718817 -2.4363463 -0.14128624 3.545783 1.4160774 0.9105745
-0.80803853 -0.72880155 1.3824674 2.396986 -4.5785265 -2.7590177 -0.9331884 0.7982248
-4.882592 0.6744443 -0.64977473 -0.70960397 1.5525978 -0.5156511 -0.20959537 -0.08473934

lstm.bias_ih_l0 f4 [192]
00000000: 5a79 4740 b65e d0be 9416 ea3f fc41 913f
00000010: 740f f83e 13b7 d93f 6430 0dbe df9c 4e40
00000020: 46ad 5f40 6d73 9d40 42e3 0940 05a4 973f
00000030: 3f43 923f 4570 b33f b8b8 5cbf b3c4 0b40
00000040: 8b19 e33f 36fe 803f ac66 0d40 aa89 bc3f
00000050: d568 bd3f 18cc 0140 6370 913f b83d 1a40
00000060: cea4 fe3f 623e 6540 4ff0 2940 fc92 5a3f
00000070: 2a07 24c0 7dbe 0940 f73e 1c40 f7f0 fb3f
00000080: 223d 4440 da02 283f 592f 9940 227f 43bf
00000090: 32ea 2e40 b9b2 c13f 16d7 0440 1b02 a23e
000000a0: e344 f13f 2bb2 b73f 1085 2e40 b085 6d40
000000b0: a0f5 2140 2354 9140 33f6 913f 4faf 2a40
000000c0: 2ba3 963f b8cf 8b40 1c05 3740 bca2 9c3e
000000d0: 0b6f af3f 704f 3b40 9c9c a1bf 4fd4 6a40
000000e0: f52f 15c0 deb7 05c0 e91a 9540 02aa f3bc
000000f0: 5fda 6840 7146 a93f eb23 653f dc3d 8640
00000100: 2341 ce3e bbe2 163f c376 6e3f 598a 1f40
00000110: de10 05c0 1275 d3bf 538a 8fbf ad47 7dc0
00000120: 22bc 7540 ffd7 24c0 d241 e43d 5cbd 2540
00000130: de88 3340 dc8c 6cc0 51b7 74c0 3a5a b1bf
00000140: 88b1 87bf 5d88 b63f 86b1 4cc0 3dfa 2b40
00000150: e1d9 a33f b4f9 d33f ac63 debf f1ae 4f40
00000160: 99ec 55be e9cd 33bf ef47 a23f f1f1 2fc0
00000170: 37cd f6bf dc1b 22c0 bfed 89bf 602a 40c0
00000180: 08de 6a40 532c 87bf 70e9 75c0 5c8a eebf
00000190: 067c 70c0 20bf b23f 26c3 5cbf 6230 1d40
000001a0: 0246 7fbf 3243 9d3e 50f6 e23f 5e6f c8bf
000001b0: c94d 4940 99b3 70c0 49da ed3f 10b9 3940
000001c0: 91f3 24c0 b159 2bc0 3e78 3ac0 063a 3440
000001d0: e68a 1d3e c093 19bd 6ca7 49c0 6042 303f
000001e0: abd4 44c0 c12f d8bf fca6 3d40 da99 d8bf
000001f0: 590c 3bc0 aefa ba3f 42bb 963f 4e73 25c0
00000200: 84ba 893f c137 7bc0 6c51 be3f 5177 bc3f
00000210: 9073 4e40 8cca 26c0 7e76 1abe 3220 1040
00000220: ff35 f4bf 75d9 95bf 20eb 6840 5909 e0bf
00000230: d456 28bf 399a 5abf fac7 c5bf a021 953e
00000240: 3e73 71bf 99d6 2f3f 7886 fb3d 84c5 163d
00000250: 889a cd3f 6164 24bf c748 813f 82d9 59bf
00000260: 248f 3d40 e562 1c40 24eb 9abf 2ac1 b33f
00000270: d0f2 2a3d 1021 1bc0 57c3 1140 6950 2f3e
00000280: a6e0 e53f fee7 33c0 f54a 05bd 10ee 17c0
00000290: 175a b63f e3e7 3f3f 14db 6c3f 2fa3 3340
000002a0: fdf8 f1bf 9202 5440 fa74 573e a07a 52bf
000002b0: 4f53 c53f 2d58 5440 20cd 8340 f8cc 3340
000002c0: 92c0 d13e 6304 c6bf 09e2 6740 2578 dbbf
000002d0: 5171 7c3f 29c6 c93f 7446 1c40 3378 e2be
000002e0: b785 8c3f 1731 0c40 ece9 1d3f 14eb 2c40
000002f0: 0d68 943f 51a1 8040 b20c a4bf 5635 b640
3.1167817 -0.4069726 1.828814 1.1348262 0.4844929 1.7008995 -0.13787991 3.2283247
3.4949508 4.92034 2.1544957 1.184693 1.1426772 1.4018637 -0.8621936 2.1838806
1.774217 1.0077579 2.2093916 1.4729512 1.4797617 2.028082 1.1362423 2.410017
1.9894044 3.5819325 2.6552923 0.8538053 -2.5629373 2.1522515 2.441343 1.9682912
3.0662313 0.6562935 4.7870297 -0.76365864 2.7330441 1.5132667 2.0756278 0.3164223
1.8849148 1.4351248 2.7268715 3.7112846 2.5306168 4.5415206 1.1403259 2.66695
1.1768545 4.3691063 2.8596869 0.30592906 1.3705763 2.9267235 -1.2625918 3.6692083
-2.331052 -2.0893474 4.659535 -0.029744152 3.6383283 1.3224622 0.8950793 4.195051
0.4028407 0.58939713 0.93149966 2.492819 -2.0791545 -1.6520102 -1.1214088 -3.9574997
3.8396077 -2.5756834 0.11145367 2.5896826 2.8052287 -3.6960974 -3.8236887 -1.385566
-1.0601053 1.4260365 -3.1983352 2.6871483 1.2800866 1.6560578 -1.7374167 3.2450526
-0.20891036 -0.7023607 1.2678202 -2.749142 -1.9281377 -2.5329504 -1.0775679 -3.0025864
3.6698017 -1.0560402 -3.842373 -1.8635974 -3.7575698 1.3964577 -0.8623527 2.456078
-0.997162 0.30715328 1.7731419 -1.5658987 3.1453726 -3.7609618 1.858224 2.9019203
-2.577366 -2.6773493 -2.913589 2.8160415 0.15385017 -0.03749442 -3.1508436 0.6885128
-3.0754802 -1.6889573 2.963317 -1.6921952 -2.9226286 1.4607751 1.1775897 -2.5851626
1.0760045 -3.925278 1.4868598 1.4723912 3.2258034 -2.6061125 -0.15084264 2.251965
-1.9078978 -1.1706988 3.639351 -1.7502853 -0.6575749 -0.85391575 -1.5451653 0.29127216
-0.9431647 0.68686825 0.12281507 0.03680946 1.6062784 -0.64215666 1.0100335 -0.85097516
2.9618616 2.443536 -1.2103009 1.4043324 0.04173547 -2.423893 2.2775476 0.17120518
1.7959182 -2.8110347 -0.032542188 -2.3739052 1.4246243 0.74963206 0.92521787 2.806835
-1.890411 3.3126569 0.21040717 -0.8221836 1.5416049 3.3178818 4.1187897 2.8093853
0.40967232 -1.5470089 3.623171 -1.714604 0.9861041 1.5763599 2.4418 -0.4423233
1.0978307 2.1904962 0.6168506 2.701848 1.1594254 4.019692 -1.2816374 5.6940107

lstm.bias_hh_l0 f4 [192]
00000000: 08df 4440 89fb 18bf 6649 ea3f fcba 973f
00000010: bbb0 0f3f f7f0 de3f b484 d63d b760 5d40
00000020: 4ea7 5d40 d392 9940 11af 1040 6786 8d3f
00000030: f59f 9a3f 7341 ac3f ae78 65bf 83a3 0d40
00000040: 2136 d63f 9cd0 613f c0b3 0740 223d a43f
00000050: e1b6 ba3f 5cb0 0f40 a7a5 a43f c0dc 1b40
00000060: adf6 0440 562e 6a40 0f3c 3440 c24a 453f
00000070: d216 2bc0 dc32 1540 7364 1d40 ce30 0840
00000080: f665 4040 e6d5 163f 6762 9740 a445 3ebf
00000090: aac1 3c40 652f c33f 6aff 0540 a3fb 793e
000000a0: fa87 e53f 9911 c03f b6d3 2f40 d233 6940
000000b0: 48d5 2440 eff9 8f40 6f45 9d3f 51eb 1840
000000c0: 737f 8f3f 8269 8b40 e85b 3040 f0ab cd3e
000000d0: 1f06 933f 720a 3640 f21c 94bf 1329 6840
000000e0: e3b1 1dc0 fb3e 02c0 b7cb 9140 7c47 e53d
000000f0: 35d3 6d40 b339 b23f 851c 8f3f f559 8340
00000100: 94e3 003f db7b 1c3f b73e 803f 8d85 1c40
00000110: 9a1c fabf a240 d8bf 046e 85bf 7db0 75c0
00000120: 358a 8040 3953 17c0 1079 c83d 28a6 2240
00000130: 3c5b 3a40 68f9 70c0 7bd6 78c0 2854 aabf
00000140: e8af 8ebf 679c d83f e2c8 3cc0 4b21 2840
00000150: 61d4 ad3f ea4d ce3f e0e5 f0bf 61f4 4340
00000160: ac91 bcbd fb17 2abf d995 9b3f 932f 29c0
00000170: f1d3 06c0 f6ac 23c0 b9be 8abf 140a 3bc0
00000180: 08a0 6f40 a473 9bbf d68f 7ac0 446a e2bf
00000190: b40a 72c0 3756 bc3f c4e2 5ebf 1cb2 0d40
000001a0: a7ec 81bf ca17 383e b2af e03f 3a59 c2bf
000001b0: 579e 5440 6ffc 62c0 4737 fb3f 421b 3b40
000001c0: 8945 2ac0 3907 31c0 0a11 34c0 805c 2640
000001d0: 6ff1 803e c618 00bc b695 50c0 3edc 333f
000001e0: 2d13 43c0 8bee e1bf b4b4 4340 e6d9 d4bf
000001f0: bffc 38c0 2e31 a63f e868 9c3f 2eef 1fc0
00000200: c936 6f3f 7b4d 76c0 10e5 b13f 11b8 b83f
00000210: 1c9a 4940 5c03 24c0 5b89 9c3d 16a0 0e40
00000220: a7bc e7bf f95c 8bbf de17 6440 1e7e 00c0
00000230: f27d 23bf 13a5 54bf 9e61 b1bf d266 af3d
00000240: de66 57bf b125 4c3f 7fba 3f3e b6dc 733a
00000250: ca8a d43f 2ffc 1abf 1239 703f 62c3 36bf
00000260: 6ad4 3840 6b02 2b40 f439 8cbf 7e7a 9f3f
00000270: 5632 b83d 1077 16c0 b1eb 1640 a59c 1d3d
00000280: 1c3a d83f 40f5 2ec0 71f4 383e ea2a 17c0
00000290: 4548 a73f a95c 703f 64ec 613f 01d9 3540
000002a0: ad76 f1bf 160c 5440 098d e03e 5c60 85bf
000002b0: 293a da3f 8dba 5640 0018 7c40 8c11 4340
000002c0: 9e37 ac3e ebee c1bf fdb9 6240 7163 d4bf
000002d0: d9f5 443f 937d d43f 70d8 1e40 60bc 04bf
000002e0: 0ea1 823f 8f32 1040 2eb3 333f 607e 3340
000002f0: 9ffb ab3f 1ed1 7f40 7443 9dbf b07b b540
3.0761127 -0.5975881 1.830365 1.1853938 0.56129044 1.7417287 0.1047453 3.459028
3.4633365 4.799173 2.2606852 1.1056641 1.2080065 1.3457474 -0.8963727 2.213105
1.6735269 0.8820894 2.120346 1.2831156 1.458706 2.2451391 1.2863053 2.4353485
2.077556 3.6590781 2.8161657 0.77067196 -2.6732678 2.3312292 2.459256 2.1279788
3.0062232 0.58920133 4.730762 -0.74325013 2.9493203 1.5248839 2.0937142 0.24412398
1.7932122 1.500537 2.7472968 3.6437879 2.5755177 4.4992595 1.2286814 2.3893626
1.121077 4.3566294 2.7556095 0.4017024 1.1486243 2.8443875 -1.1571333 3.627507
-2.4639823 -2.035094 4.5561175 0.11195275 3.716016 1.3923858 1.1180578 4.104731
0.50347257 0.6112649 1.0019139 2.4456513 -1.9539979 -1.6894724 -1.0424199 -3.838897
4.016871 -2.3644545 0.09788716 2.5413914 2.9118185 -3.7652225 -3.8880908 -1.3306932
-1.1147432 1.692273 -2.949761 2.627032 1.3580438 1.6117527 -1.8820152 3.0617907
-0.09207472 -0.6644284 1.2155105 -2.6435287 -2.1066859 -2.5574317 -1.0839454 -2.9224901
3.7441425 -1.2144666 -3.915029 -1.768868 -3.7819033 1.4713811 -0.87064767 2.213996
-1.0150346 0.17977825 1.7553618 -1.518348 3.3221643 -3.5466573 1.9626244 2.9235387
-2.660494 -2.7660658 -2.81354 2.5993958 0.251842 -0.007818406 -3.2591376 0.7025794
-3.0480454 -1.7650923 3.0579042 -1.6628997 -2.8904264 1.2983758 1.2219515 -2.4989734
0.9344297 -3.848479 1.3898029 1.4431173 3.150031 -2.562705 0.07643386 2.2285209
-1.8104447 -1.0887748 3.5639567 -2.0076976 -0.6386405 -0.83064383 -1.3857915 0.08564533
-0.8414134 0.7974501 0.18723486 0.0009302603 1.6604855 -0.6054105 0.9383708 -0.7139188
2.8879647 2.6720226 -1.0955186 1.2459257 0.08993976 -2.351017 2.3581355 0.038479466
1.6892734 -2.7337189 0.18061997 -2.3619943 1.306893 0.9389139 0.8825133 2.8413699
-1.8864342 3.3132377 0.438576 -1.0420032 1.7048999 3.3551362 3.9389648 3.047946
0.33636183 -1.5151037 3.5426018 -1.6592847 0.76937634 1.6600822 2.4819603 -0.5184994
1.02054 2.2530859 0.7019528 2.8045883 1.3436164 3.9971385 -1.228621 5.6713486

saida.weight f4 [202, 48]
00000000: 5024 08c0 e6f7 8d3f 38a3 4c40 3987 a23f
00000010: d7b2 9e3f 8a36 26c0 8732 8a3e c8b9 1ec0
00000020: c01f 3d3f 200f d13f b9f0 23c0 5d2f 903f
00000030: 5a59 4cc0 1320 0c40 1929 61bf 6622 52c0
00000040: d932 b33f 3ba9 0440 4a82 1140 d835 bbbf
00000050: 9b71 1ebf e41a 78bf 6d16 b43f ef63 573f
00000060: aa17 df3f c13c 9b3f 08da fcbf 70c7 3540
00000070: 0a32 dcbd 48c0 2b3f 5630 913e 163e 6d3f
00000080: 429b a5bf 560f 1d40 f682 60bf 99ab b4bf
00000090: 82e6 0dc0 0b96 813f 2f0a a33f b122 07c0
000000a0: f2da 0240 bbdb ea3f 7af7 0fc0 574d 893f
000000b0: 5d1c 5d3f 7557 9ebe dfe8 833f 4628 57bf
000000c0: 36a4 08c0 c478 8e3f 283e 4d40 6ea4 a13f
000000d0: a84f 993f 7a0b 28c0 642c 823e d1f1 20c0
000000e0: 3384 3a3f 2a20 d03f 10e1 23c0 3a38 8b3f
000000f0: 80c1 44c0 be5e 0940 200c 62bf 57df 4bc0
00000100: d21e ac3f 1e07 0840 f788 1240 2ef6 b1bf
00000110: 5180 1cbf 44a9 75bf b70c ba3f 0197 673f
00000120: 25ac ea3f 6b74 9c3f 9198 f4bf abe8 3340
00000130: d52d d8bd 6694 2b3f 8c0e 9a3e 1a27 723f
00000140: 7352 a5bf 5979 1540 8fef 69bf beda aabf
00000150: a080 09c0 25c5 853f 2cd6 a33f 3213 0ec0
00000160: 1e07 0440 9cb6 ee3f 2e37 0ec0 a7b8 833f
00000170: 3eef 553f 27ac 99be 316b 7a3f d1ac 5abf
00000180: 4708 08c0 9e94 903f 281f 4e40 041c 9c3f
00000190: 8abf 9c3f 08c1 25c0 bf51 703e 187e 23c0
000001a0: 3cb6 353f 5a90 d33f 9da9 22c0 8103 923f
000001b0: 112b 49c0 4f84 0f40 32b3 62bf ba23 4fc0
000001c0: 45c6 aa3f 8565 0840 7c5a 0f40 df86 c2bf
000001d0: 0fae 21bf 0e32 7abf d1a0 bc3f c761 673f
000001e0: 95e6 eb3f f280 9b3f 5e15 f9bf c38e 3940
000001f0: 978a fcbd fd09 2e3f c262 9e3e 95c0 6e3f
00000200: ce4c a7bf a08e 1740 41ce 60bf 4767 b1bf
00000210: 0279 0bc0 7a12 853f 6c1f a43f 899e 08c0
00000220: b5c6 0840 5f62 ea3f 6d59 11c0 cb4c 863f
00000230: caaf 5a3f 4bfa 9bbe c303 793f 21b9 54bf
00000240: 1023 47c1 b0d1 b43d 6bdf 0542 fae8 94bf
00000250: f1a4 0b41 f569 64bf 8e9e de3f 2692 77bf
00000260: a365 21bd 3754 aabf 5eb9 2ac1 91ed e440
00000270: 4e50 2cbe 9942 9241 721f 33c0 51e3 8bc1
00000280: 999b c340 5b1a 1f41 1cb4 4e41 74d0 43c1
00000290: a68a 82bf 02b6 5540 08ab a1bf 7641 93bf
000002a0: 4282 6241 cb81 553f 43d8 5ec1 3137 9c41
000002b0: 5e97 02c0 a673 3f3f 653c 1abe f159 c33d
000002c0: 5864 0ac0 2979 d2be d4e8 f5be 52b7 bfc0
000002d0: 2a6b 9fc0 72f3 7dbe ae61 1b41 1234 98c1
000002e0: c407 26c0 d976 ed3e 4a06 413f 693c 3d3f
000002f0: fbe3 4640 9acc 80be 21e0 7b40 3498 8ebf
00000300: f0b8 02c0 08d7 893f 6b17 4440 ba16 a03f
00000310: 4f19 9f3f c05e 23c0 f615 723e b416 1fc0
00000320: 299a 393f de8e ce3f c3e7 1dc0 3d92 8a3f
00000330: bfd5 46c0 e684 0c40 0210 66bf 4d71 4cc0
00000340: 4144 9c3f b5ed 0640 a9ee 0c40 9e38 b1bf
00000350: 7859 13bf 1421 77bf cc62 b63f d0d6 5f3f
00000360: 7be7 db3f 4550 9a3f 4b48 eebf c1b5 2f40
00000370: b2b7 e7bd da45 2b3f 76c8 8b3e 36e5 6f3f
00000380: 195b a1bf 0900 1340 5e74 6cbf 93a2 a8bf
00000390: 451a 0bc0 ea50 833f 9843 a03f 426f 0bc0
000003a0: 8095 0240 1a80 ea3f aaf5 08c0 ab23 883f
000003b0: b8c9 563f 4b44 95be c705 7d3f 1b13 57bf
000003c0: 7797 a6c0 3ac5 8840 af6b 0e3e 8fd2 bbbf
000003d0: 20d0 0a41 2d50 13c1 db5e 4340 8593 1ac1
000003e0: 28bc 4040 1daf b93e 867e 2cc1 ac3d d9bc
000003f0: 459b f2bf 9043 923f 6766 4dbe 2bde 6ec1
-2.1272163 1.1091278 3.197462 1.2697517 1.2398328 -2.5970788 0.26991674 -2.4800892
0.7387657 1.6332741 -2.5615675 1.1264454 -3.1929536 2.1894577 -0.87953335 -3.2833495
1.3999892 2.072829 2.2735772 -1.4625807 -0.618921 -0.9691603 1.4069344 0.8413686
1.7429097 1.2127916 -1.9754038 2.8402977 -0.10751732 0.6709027 0.2835719 0.9267286
-1.2938006 2.454061 -0.8769983 -1.4114867 -2.217194 1.0123914 1.2737483 -2.1114924
2.0446134 1.8348306 -2.2494798 1.0726727 0.86371404 -0.309261 1.0305442 -0.8404583
-2.1350226 1.1130605 3.2069187 1.2628305 1.1977434 -2.6257005 0.25424492 -2.5147593
0.7285797 1.6259816 -2.5606117 1.0876534 -3.0743103 2.1464076 -0.8829975 -3.1855066
1.3446906 2.1254344 2.2896097 -1.3903253 -0.61133295 -0.95961404 1.453513 0.9046479
1.8333784 1.2223028 -1.910906 2.811076 -0.10555617 0.67023313 0.30089223 0.94590914
-1.2915787 2.3355315 -0.9138116 -1.3348005 -2.1484756 1.0450789 1.2799735 -2.2199216
2.0629344 1.8649478 -2.222118 1.0290726 0.8356818 -0.30014154 0.9781981 -0.85419947
-2.1255052 1.1295354 3.2206516 1.219605 1.2245953 -2.5899067 0.23468684 -2.5545712
0.7098119 1.6528428 -2.5416024 1.1407319 -3.1432536 2.2424505 -0.8855468 -3.2365556
1.3341757 2.1311963 2.2398977 -1.5197409 -0.6315622 -0.9773263 1.4736577 0.9038357
1.8429743 1.2148726 -1.9459646 2.8993385 -0.123311214 0.6798399 0.3093472 0.93262607
-1.3070314 2.3680801 -0.8781472 -1.3859643 -2.1792607 1.0396264 1.2822089 -2.1346762
2.137128 1.831127 -2.271083 1.0492185 0.8542448 -0.30464396 0.97271365 -0.83094984
-12.44606 0.08829057 33.46818 -1.1633599 8.727769 -0.8922418 1.7392137 -0.9670738
-0.03940357 -1.330695 -10.670256 7.154 -0.16827509 18.282518 -2.7987943 -17.485994
6.112744 9.943934 12.918972 -12.238392 -1.0198562 3.3392339 -1.263032 -1.1504352
14.156801 0.83401173 -13.927798 19.526949 -2.0404887 0.7478584 -0.15062101 0.09538639
-2.1623745 -0.41108063 -0.48029196 -5.991128 -4.9818316 -0.24799898 9.711348 -19.025425
-2.594224 0.46379736 0.7540022 0.73920304 3.1076648 -0.251561 3.9355547 -1.1140199
-2.0425377 1.0768747 3.0639293 1.2506936 1.2429599 -2.552658 0.2364119 -2.4857607
0.72500855 1.613735 -2.4672706 1.0825878 -3.106796 2.1956115 -0.89868176 -3.1944153
1.220833 2.1082585 2.2020667 -1.3845403 -0.57558393 -0.9653485 1.42489 0.8743715
1.7180017 1.2055746 -1.8615812 2.7454684 -0.11314334 0.6690346 0.27301377 0.93709123
-1.2605926 2.2968771 -0.9236506 -1.3174614 -2.1734784 1.0259068 1.2520628 -2.1786656
2.0403748 1.8320343 -2.1399941 1.0635885 0.8390155 -0.29153666 0.9883694 -0.8401353
-5.2059894 4.2740755 0.13908266 -1.4673632 8.675812 -9.207074 3.0526645 -9.6610155
3.0114841 0.36266413 -10.7808895 -0.026518665 -1.8953635 1.1426868 -0.20058595 -14.92924

saida.bias f4 [202]
00000000: 69d7 89c0 6586 8bc0 500d 89c0 a3e5 fcbf
00000010: c6a3 91c0 8a99 86bf 2415 c0bf 024f 03c0
00000020: b41a f6bf fdca 7cc0 fa06 5fc0 bb5c 883f
00000030: 760f e63c 2721 473e e06e e03f 9c3d 263f
00000040: 2b40 753f 3bb5 3740 da32 883f 79c4 883e
00000050: 1512 513d f21b cb3f c98d 33c0 af1a e53f
00000060: 6e44 e33f e5ff a53f 288d 9d3d fa87 073f
00000070: 9df7 85c0 c76c 3f40 7ae0 273f cf3b db3f
00000080: 6c88 a03f 9d96 c43f 833f a1bf bab0 40bf
00000090: 53c2 4c3f 945c 3340 784b 31bf 6cb3 133e
000000a0: 264e debf 6634 a8c0 facb 6bbd 1eb5 4b3f
000000b0: 76c2 28c0 3314 b8bd 2251 5bbf 7ed8 653f
000000c0: ca09 563f 0810 36c0 accd 29c0 015c 4740
000000d0: 5c14 393f b5b4 0cbe f35e 08c0 1e18 4dbf
000000e0: efea 403f 8f54 1d40 824d 183e e9c3 c23f
000000f0: 6cb1 4cbf 5476 b73f 6072 ea3f 49a9 563f
00000100: a0e7 923f a6db 863d 2f6b 1640 f00d 0540
00000110: bc75 623f bf70 0440 3186 813f 472b ca3f
00000120: c091 4ac0 d42d 0940 44e1 af3f 0a04 c6bf
00000130: 0769 d83e ce65 8e3c a1d2 41bf fb0f 9c3f
00000140: e17e f6be 3939 203e c6c3 f73f e136 1ec0
00000150: 2102 f63c 361c 28c0 4f2a 50be f3c3 413e
00000160: 8928 f1bf 31b7 5d3e 2cdc 04c0 4784 d13e
00000170: 9eea a23e 3c60 043f ef38 28bf 17c2 89c0
00000180: 80bc adbe 56d4 b63e 0a40 093f bc0d c6be
00000190: cabf 65c0 1904 94bf 76c7 a6be b73c babf
000001a0: 71a1 a0be c2f5 f0bf f750 79c0 d7ac a4bf
000001b0: 3190 c2bc 044f f83f 7848 f5bf 1c00 aec0
000001c0: c2d6 52be 073f 1a3f 31dd 89c0 64fa 42bf
000001d0: d77b ffbe 44aa 1dbf 2877 21c0 da06 493f
000001e0: d460 2dc0 3126 35c0 fa47 12bf 2586 0dc0
000001f0: aa5b cdbf d8a2 36bf adec 633f 36ec c2c0
00000200: 4fa4 333f 449a 843f 2eea c23f 3a8e 55be
00000210: 612d ffbf eb4e 25c0 7501 383e 7265 1bbf
00000220: aea1 503f c476 f13e 1b16 acbe b5bb 7a3f
00000230: e567 93bf 0f1e 3f3f 09a0 88bf b56e bcbf
00000240: 3a9e 04bf f65b 183f 3fcf 4ec0 6086 23c0
00000250: 5a2e fd3e 44c0 12c0 961c 86bf 865a bfbf
00000260: de80 cfbf 399e 38c0 9b24 d4bf c96a 1bbf
00000270: ab8b c73e eb61 b3be 29d8 a6be e9a6 31c0
00000280: d5c8 37c0 4903 47bf da95 d43e ccba ddbe
00000290: acb6 21c0 c662 fd3e e735 90c0 45cb 8abf
000002a0: 924b 573f b379 d9bf 5b26 33be b660 34c0
000002b0: 4d19 76c0 f799 88bf 4364 8abf 55bb 8abf
000002c0: 6696 88c0 4b5e 3840 cb0d 48bf c1a3 74bf
000002d0: 96ab 2fc0 05a1 0dc0 0a05 313f 9c34 06c0
000002e0: d90e f0bf af32 3dc0 16ee f4bf 83a1 77c0
000002f0: e133 c9bf 1545 573f e537 3dc0 1ac2 a8bf
00000300: a0ad 1fc0 6571 e6bf 2e89 65c0 fd43 a6c0
00000310: e5e8 3ac0 9c76 a7bf 6c3d 643e 1751 52c0
00000320: aca3 82bf fe36 85c0
-4.307545 -4.3601556 -4.282875 -1.975758 -4.551242 -1.0515606 -1.5006452 -2.0516973
-1.9226899 -3.9498894 -3.4848008 1.0653299 0.028083544 0.1944624 1.7533836 0.6493776
0.9580104 2.8704364 1.0640519 0.26712397 0.051042635 1.5867903 -2.8055289 1.7898768
1.7755258 1.2968718 0.07692939 0.5294186 -4.186476 2.9910142 0.655769 1.7127627
1.2541633 1.5358464 -1.2597507 -0.75269663 0.79984015 2.8025255 -0.6925578 0.14423913
-1.7367599 -5.2563963 -0.057567574 0.7957324 -2.636869 -0.08988228 -0.85670674 0.89783466
0.83608687 -2.8447285 -2.6531782 3.1149905 0.7229669 -0.1374081 -2.1307952 -0.80114925
0.7535848 2.458286 0.14873317 1.5216037 -0.79958224 1.4332986 1.8316154 0.8385206
1.1476936 0.06584863 2.350292 2.0789757 0.884609 2.0693815 1.0119077 1.5794457
-3.1651459 2.1434221 1.3740621 -1.5469983 0.4226763 0.017382529 -0.7571202 1.2192377
-0.48143676 0.15646829 1.935662 -2.4720995 0.030030312 -2.6267219 -0.2032864 0.18922405
-1.8840495 0.21651913 -2.0759382 0.40921232 0.31819624 0.5170934 -0.65711874 -4.3049426
-0.33932877 0.35708874 0.5361334 -0.38682353 -3.5898309 -1.156375 -0.32574052 -1.4549779
-0.3137317 -1.8824999 -3.8955667 -1.2865247 -0.023750396 1.9399114 -1.9162741 -5.4375134
-0.20589736 0.6025242 -4.308251 -0.76163316 -0.4989917 -0.6158793 -2.5228977 0.7852608
-2.709035 -2.830456 -0.5714108 -2.2113125 -1.6043599 -0.7134223 0.89033014 -6.0913343
0.7017259 1.0359578 1.5227716 -0.20855036 -1.9935724 -2.5829418 0.17969306 -0.6070167
0.81496704 0.47160923 -0.33610615 0.9794267 -1.1516081 0.7465524 -1.0673839 -1.4721285
-0.51803935 0.5951532 -3.2313993 -2.5550766 0.49449426 -2.292985 -1.0477474 -1.49495
-1.6211202 -2.8846571 -1.6573671 -0.60709816 0.38973746 -0.35035643 -0.32586792 -2.7758124
-2.8716328 -0.7773939 0.41520578 -0.43306577 -2.5267744 0.4948942 -4.50658 -1.0843283
0.84099686 -1.6990265 -0.174951 -2.8184028 -3.8452942 -1.0671986 -1.0811847 -1.0838419
-4.268359 2.8807552 -0.78146046 -0.9556237 -2.7448478 -2.2129529 0.69148314 -2.096961
-1.8754531 -2.9562185 -1.9135158 -3.869233 -1.5718957 0.84089786 -2.9565365 -1.3184235
-2.4949722 -1.8003355 -3.5864978 -5.1957994 -2.9204648 -1.3083072 0.22289056 -3.2861993
-1.0206199 -4.162963
